…
ord-embeddings. E.g., we can find the distance between any two words which could be interpreted as how similar or distinct the words are, cluster the similar words together, etc. . In Fastai, the target dimension of an embedding is found out by the learner itself during training. So, there is a total of 10 categorical variables, so 11 embedding matrices are shown below, where for example the third embedding matrix is of shape (75, 18), meaning it has 75 distinct categories and it&#39;s calculating an 18-dim vector for each of the category. . learn.model . TabularModel( (embeds): ModuleList( (0): Embedding(7, 5) (1): Embedding(3, 3) (2): Embedding(75, 18) (3): Embedding(4, 3) (4): Embedding(178, 29) (5): Embedding(5060, 190) (6): Embedding(7, 5) (7): Embedding(13, 7) (8): Embedding(7, 5) (9): Embedding(18, 8) ) (emb_drop): Dropout(p=0.0, inplace=False) (bn_cont): BatchNorm1d(3, eps=1e-05, momentum=0.1, affine=True, track_running_stats=True) (layers): Sequential( (0): LinBnDrop( (0): BatchNorm1d(276, eps=1e-05, momentum=0.1, affine=True, track_running_stats=True) (1): Linear(in_features=276, out_features=500, bias=False) (2): ReLU(inplace=True) ) (1): LinBnDrop( (0): BatchNorm1d(500, eps=1e-05, momentum=0.1, affine=True, track_running_stats=True) (1): Linear(in_features=500, out_features=250, bias=False) (2): ReLU(inplace=True) ) (2): LinBnDrop( (0): Linear(in_features=250, out_features=1, bias=True) ) (3): SigmoidRange(low=8, high=12) ) ) . Using Embeddings in a Random Forest . There is a paper, &quot;Entity Embeddings of Categorical Variables&quot; which tells about embeddings of categorical variables. The abstract of the paper is: . Entity embedding not only reduces memory usage and speeds up neural networks compared with one-hot encoding, but mor
…
