…
et_y=parent_label) dls = mnist.dataloaders(path/&#39;training&#39;) xb,yb = first(dls.train) xb.shape, yb.shape . ((64, 1, 28, 28), (64,)) . def block(ni, nf, stride=2, isBN=False): return ConvLayer(ni, nf, stride=stride, norm_type=None if isBN==False else NormType.Batch, act_cls=nn.Sigmoid) . def get_model(isBN): basic_cnn = nn.Sequential( block(1, 8, isBN=isBN), block(8, 16, isBN=isBN), block(16,32, isBN=isBN), block(32, 64, isBN=isBN), block(64, 128, isBN=isBN), nn.AdaptiveAvgPool2d(1), Flatten(), nn.Linear(128, 10) ) return basic_cnn . get_model(isBN=False) . Sequential( (0): ConvLayer( (0): Conv2d(1, 8, kernel_size=(3, 3), stride=(2, 2), padding=(1, 1)) (1): Sigmoid() ) (1): ConvLayer( (0): Conv2d(8, 16, kernel_size=(3, 3), stride=(2, 2), padding=(1, 1)) (1): Sigmoid() ) (2): ConvLayer( (0): Conv2d(16, 32, kernel_size=(3, 3), stride=(2, 2), padding=(1, 1)) (1): Sigmoid() ) (3): ConvLayer( (0): Conv2d(32, 64, kernel_size=(3, 3), stride=(2, 2), padding=(1, 1)) (1): Sigmoid() ) (4): ConvLayer( (0): Conv2d(64, 128, kernel_size=(3, 3), stride=(2, 2), padding=(1, 1)) (1): Sigmoid() ) (5): AdaptiveAvgPool2d(output_size=1) (6): Flatten(full=False) (7): Linear(in_features=128, out_features=10, bias=True) ) . get_model(isBN=True) . Sequential( (0): ConvLayer( (0): Conv2d(1, 8, kernel_size=(3, 3), stride=(2, 2), padding=(1, 1), bias=False) (1): BatchNorm2d(8, eps=1e-05, momentum=0.1, affine=True, track_running_stats=True) (2): Sigmoid() ) (1): ConvLayer( (0): Conv2d(8, 16, kernel_size=(3, 3), stride=(2, 2), padding=(1, 1), bias=False) (1): BatchNorm2d(16, eps=1e-05, momentum=0.1, affine=True, track_running_stats=True) (2): Sigmoid() ) (2): ConvLayer( (0): Conv2d(16, 32, kernel_size=(3, 3), stride=(2, 2), padding=(1, 1), bias=False) (1): BatchNorm2d(32, eps=1e-05, momentum=0.1, affine=True, track_running_stats=True) (2): Sigmoid() ) (3): ConvLayer( (0): Conv2d(32, 64, kernel_size=(3, 3), stride=(2, 2), padding=(1, 1), bias=False) (1): BatchNorm2d(64, eps=1e-05, momentum=0.1, affine=True, track_running_stats=True) (2): Sigmoid() ) (4): ConvLayer( (0): Conv2d(64, 128, kernel_size=(3, 3), stride=(2, 2), padding=(1, 1), bias=False) (1): BatchNorm2d(128, eps=1e-05, momentum=0.1, affine=True, track_running_stats=True) (2): Sigmoid() ) (5): AdaptiveAvgPool2d(output_size=1) (6): Flatten(full=False) (7): Linear(in_features=128, out_features=10, bias=True) ) . To get an idea what are the typical inputs, i.e what is input distribution to any of the sigmoid in the deeper layer, I have implemented a Hook callback. This hook will call before_fit at the start of fit initializing 3 lists for 15, 50, 85 percentile in the batch of inputs it has received. In after_batch it will append in the lists. get_stats is ca
…
ord-embeddings. E.g., we can find the distance between any two words which could be interpreted as how similar or distinct the words are, cluster the similar words together, etc. . In Fastai, the target dimension of an embedding is found out by the learner itself during training. So, there is a total of 10 categorical variables, so 11 embedding matrices are shown below, where for example the third embedding matrix is of shape (75, 18), meaning it has 75 distinct categories and it&#39;s calculating an 18-dim vector for each of the category. . learn.model . TabularModel( (embeds): ModuleList( (0): Embedding(7, 5) (1): Embedding(3, 3) (2): Embedding(75, 18) (3): Embedding(4, 3) (4): Embedding(178, 29) (5): Embedding(5060, 190) (6): Embedding(7, 5) (7): Embedding(13, 7) (8): Embedding(7, 5) (9): Embedding(18, 8) ) (emb_drop): Dropout(p=0.0, inplace=False) (bn_cont): BatchNorm1d(3, eps=1e-05, momentum=0.1, affine=True, track_running_stats=True) (layers): Sequential( (0): LinBnDrop( (0): BatchNorm1d(276, eps=1e-05, momentum=0.1, affine=True, track_running_stats=True) (1): Linear(in_features=276, out_features=500, bias=False) (2): ReLU(inplace=True) ) (1): LinBnDrop( (0): BatchNorm1d(500, eps=1e-05, momentum=0.1, affine=True, track_running_stats=True) (1): Linear(in_features=500, out_features=250, bias=False) (2): ReLU(inplace=True) ) (2): LinBnDrop( (0): Linear(in_features=250, out_features=1, bias=True) ) (3): SigmoidRange(low=8, high=12) ) ) . Using Embeddings in a Random Forest . There is a paper, &quot;Entity Embeddings of Categorical Variables&quot; which tells about embeddings of categorical variables. The abstract of the paper is: . Entity embedding not only reduces memory usage and speeds up neural networks compared with one-hot encoding, but mor
…
